backend/ml/artifacts/autoencoder.pt (torch, 15621 bytes, 8 tensors)

encoder.0.weight f4 [64, 6]
000000 15 90 9b be 66 14 b4 be 53 25 a1 be 5a 0f 31 bb
       -0.30383363 -0.35171813 -0.3147379 -0.0027017207
000010 c8 16 7b 3e 8e 94 88 3e 9e a1 88 be 58 c4 c5 3e
       0.24520409 0.26675838 -0.26685804 0.3862636
000020 8d 89 99 3e c1 49 75 3e cb a8 a1 3e 68 ef e5 3e
       0.29987755 0.23953916 0.3157409 0.44909215
000030 ca 22 b3 3d 79 d5 94 be f9 d7 41 be 49 64 f5 bc
       0.0874687 -0.29069117 -0.18930043 -0.029955046
000040 25 e7 6e be a4 4c f8 3d 56 06 79 3e 98 8c 25 be
       -0.23330362 0.12123993 0.24318823 -0.16166914
000050 96 7e 3f be dd a0 b6 3e ef ef 97 3e b4 bd de 3e
       -0.18700632 0.35669604 0.29675242 0.43504107
000060 44 87 6d 3d e8 2f 45 3c 01 85 af be 1e 14 95 3e
       0.057990327 0.0120353475 -0.3428116 0.2911691
000070 b2 d3 d0 3e a7 00 87 3e ca 75 2c bd ae 77 50 be
       0.4078651 0.26367685 -0.04210452 -0.20358154
000080 67 8b b3 3e 55 e8 c2 3e 78 54 be 3e c6 a1 ab bd
       0.35067293 0.3806788 0.3717382 -0.08380465
000090 d4 fa 9b 3d 76 32 a4 bc 02 8c 1c 3a a0 25 9c 3e
       0.07616201 -0.020043593 0.00059717905 0.30497456
0000a0 be ef c3 bd 28 4e 8c 3e 8e bc f2 3e 0c 66 e2 3e
       -0.095672116 0.27403378 0.4740948 0.4421848
0000b0 c1 8f ec 3e 2b b8 ad 3d 9e b2 bb 3e a8 c7 68 be
       0.46203426 0.08482393 0.36659712 -0.22732413
0000c0 cd 05 6f bd 53 40 2e bd b3 04 8c 3e 37 fa 6b bd
       -0.05835514 -0.042541813 0.27347335 -0.05761167
0000d0 03 7f b7 bd ef af 93 be 5a 58 9f 3e 53 0c 97 be
       -0.089597724 -0.28845164 0.31122094 -0.2950159
0000e0 71 29 9b be f4 3a 46 3e 0b e5 af 3e 5a 9a 9b 3e
       -0.30305055 0.19358426 0.34354433 0.30391198
0000f0 a0 b1 89 37 19 3e 8b 3d 78 41 5e bd 9e f6 46 b9
       1.6414386e-05 0.067989536 -0.054261655 -0.00018974624
000100 52 d4 97 bd e8 22 be bc 9e ee 9c 3c 21 db 08 bd
       -0.07413544 -0.023210004 0.01915675 -0.033412103
000110 9b b9 a4 be 3f 8e 8f 3d 85 06 91 bd a0 e1 46 b9
       -0.32172856 0.07009553 -0.070813216 -0.00018966803
000120 bc e2 ce 3d 15 65 20 3d cf 9f fa bc cc 1c a6 bd
       0.1010184 0.0391589 -0.03059378 -0.08110961
000130 bb f3 42 be 9c 00 21 3d 31 a3 dd 3e 6a 02 b5 3c
       -0.19038288 0.03930722 0.43288568 0.022095878
000140 03 49 2e bc 1e 52 94 3b 64 9b 4b 3e 61 d7 bd 3e
       -0.010637525 0.0045263907 0.19883496 0.37078384
000150 59 d6 0d 3e 93 82 9d be 0b cd 0e 3e 97 fa a8 bd
       0.13851298 -0.30763683 0.13945405 -0.08250921
000160 b2 75 ca 3e a9 ab 44 3e 0b 54 93 3e 58 9d ac bc
       0.3954292 0.19206108 0.28775057 -0.021071121
000170 e5 8d 80 3e 95 4b a0 3e 98 3a 08 be b7 4e 73 be
       0.25108257 0.31307665 -0.13303602 -0.23760496
000180 21 2d de 3d d1 a7 78 3e 48 66 95 bd 47 f8 a6 bd
       0.108484514 0.24282767 -0.07294899 -0.08152824
000190 ce 55 42 bd fa 92 84 be d0 f0 9f 3e 0e 0a 81 3e
       -0.04744511 -0.25893384 0.31238413 0.25202984
0001a0 b5 64 79 3c c1 1c ba 3e 74 e9 be 3e 6f 0d 19 3e
       0.015221764 0.36350062 0.37287486 0.14946531
0001b0 1f f6 64 3e 50 52 13 3c 68 66 5d 37 b2 e4 f0 3c
       0.22359513 0.008991793 1.319647e-05 0.029405925
0001c0 8b ba 18 be 3b 72 65 3e 50 24 2d be b8 99 b6 bd
       -0.1491491 0.22406857 -0.16908383 -0.08916038
0001d0 b4 3c 6a 37 61 7a a1 b8 9b dc 46 be 67 fd 9f be
       1.396162e-05 -7.699873e-05 -0.19420092 -0.31248018
0001e0 e1 74 ec 3c f8 21 eb bc 61 cd 2c 3d 9a 57 28 3d
       0.028864326 -0.028702721 0.042188052 0.04109917
0001f0 41 f8 8a be 8c a5 3a ba f1 4b d9 3d b2 08 a4 3e
       -0.27142528 -0.00071200053 0.10610188 0.32037884
000200 39 f4 7e 3e 45 a8 23 be 55 40 28 3e b6 2e a0 bd
       0.24897851 -0.15982158 0.1643079 -0.078214094
000210 1c 42 a4 3e 9d 89 8c 3e 63 0a a6 3e a4 6c c5 3e
       0.32081687 0.2744874 0.324298 0.3855945
000220 4f fa c4 3d 11 06 ce 3e 97 08 a4 3e 5d 20 5b bc
       0.09618055 0.40239003 0.32037804 -0.013374415
000230 4c 14 a4 3d c2 ad 87 be 57 a9 90 bd fd 40 ff bd
       0.08011684 -0.26499754 -0.07063549 -0.124635674
000240 ae 37 10 3d 34 d9 9a 3c 4d 4e 84 3e 41 de 00 be
       0.03520935 0.018902399 0.2584099 -0.12584783
000250 d0 d7 d7 bd 99 3b 2e 3e 16 03 aa 3e 6a 0c 31 be
       -0.1053921 0.17014922 0.3320548 -0.17289892
000260 9e f2 c1 3d d6 7f 97 be b3 21 c3 bb 74 82 54 be
       0.09470104 -0.2958972 -0.005954945 -0.20752889
000270 ef 12 39 3e ec 9d 06 be c5 67 1d 3e 9d bd 89 be
       0.18073629 -0.1314618 0.15371616 -0.26902476
000280 9c 45 2d be 78 bb 4a be e2 45 a8 3e 66 21 65 be
       -0.16921085 -0.19798076 0.32865816 -0.22376022
000290 1e ea 12 be 92 27 96 3e e4 53 ed 3e 82 8b c5 3c
       -0.14347121 0.29327065 0.46353066 0.024114374
0002a0 0f 4a 54 38 79 1b a6 3e 50 22 36 be e8 db 5e 3e
       5.061371e-05 0.32442835 -0.17786527 0.21763575
0002b0 58 ff e6 bd 05 0a 77 3d db 09 16 bb 35 01 84 3e
       -0.11279172 0.06031229 -0.0022894058 0.2578217
0002c0 a2 8e 7b bc e1 0e 97 be 7a 1a 9b be f3 2f 88 3e
       -0.0153538305 -0.2950354 -0.30293638 0.26599082
0002d0 e8 a2 80 be 39 53 85 3d fc 2b 08 be 85 0f 12 bd
       -0.25124288 0.06510014 -0.13298029 -0.03565933
0002e0 cc 6f 8b be 00 ae 29 3e ee 6a a1 be fc 2a 91 3e
       -0.27233732 0.16570282 -0.31526893 0.28353107
0002f0 17 55 3f 3e 10 d6 b4 bd 5d b0 ed 3d dd 86 4e 3d
       0.18684803 -0.08829892 0.11605904 0.050421584
000300 4d 4a 81 be d1 d7 3e be 2c 58 dd 3a 73 af bf 3e
       -0.25252 -0.18637015 0.0016887239 0.37438545
000310 6a fc ae 3e 6e f8 99 be ec 04 cd 3e 60 f1 53 be
       0.34176952 -0.3007235 0.40042818 -0.20697546
000320 7e c5 86 3e f5 df ef 3c cc 4f 49 3e be 50 a0 be
       0.2632255 0.029281596 0.19659346 -0.313116
000330 26 0d 88 3d b4 3b ef 37 0e d5 46 be c8 1c 95 37
       0.06643133 2.8518822e-05 -0.19417211 1.7775586e-05
000340 54 23 ab bd bb 46 d0 bc f5 60 a7 be b1 a3 7c 3d
       -0.08356348 -0.025424352 -0.3269116 0.061679546
000350 02 ee 05 3e 5f 28 8b be 74 2f 66 3e 6e 26 0d be
       0.13079074 -0.27179238 0.2247904 -0.13784191
000360 0a 5a ba 3e 91 82 32 bc 53 c7 2a 3e e8 3b 79 3e
       0.3639682 -0.010895387 0.16677599 0.24339259
000370 d2 f7 08 bc 06 03 98 be ae a8 d4 3d f2 97 8c 3e
       -0.008359866 -0.29689807 0.103837356 0.27459675
000380 57 d3 eb bd 72 ed 8a bc 4b cb 0b be 0c 93 94 ba
       -0.11514919 -0.016958926 -0.13651769 -0.0011335327
000390 de a1 a5 3d 64 fb 3c 3e b7 4b 45 3e 7a c0 ba 3e
       0.08087514 0.18455273 0.19267164 0.36474973
0003a0 20 59 a7 3c 3a a2 36 bd eb ea 02 be f2 63 01 be
       0.02042824 -0.044588305 -0.12784927 -0.12635782
0003b0 ef 34 1d be 5b cb 16 bd 16 20 1d bd 0f be 41 3a
       -0.15352224 -0.03681503 -0.038360678 0.00073906867
0003c0 3f 3c 4e 3e 5d dc e8 bd 1f 1d 53 bd 35 eb be be
       0.2014017 -0.11370156 -0.051541444 -0.37288824
0003d0 6e 41 8b bb a9 3f 9d 3e 5d 07 41 ba 79 fa 1e 3a
       -0.004249743 0.3071263 -0.0007363463 0.0006064545
0003e0 9d 95 c6 3d 6f ec 15 b9 47 67 23 be 00 88 05 bb
       0.09696505 -0.00014297826 -0.15957366 -0.0020375252
0003f0 31 1e 21 3e c4 95 80 be 53 d3 46 3e 9c ae 81 3e
       0.15734173 -0.25114262 0.19416551 0.2532853

encoder.0.bias f4 [64]
000000 1a e8 75 be 18 50 ca bc 6a b1 63 39 1a f1 ee 3d
       -0.24014321 -0.024696395 0.00021714499 0.1166708
000010 f1 9f 1a 3e d9 8d 11 bd d5 f9 8e be f1 1f 87 be
       0.15100075 -0.035535667 -0.27924982 -0.26391557
000020 48 57 d0 bc f9 e3 3e 3e 8b f2 a8 bd 41 c7 52 3d
       -0.025432244 0.18641652 -0.082493864 0.051459555
000030 0d 82 4a 3e 68 95 4c 3e ba a2 0f 3e 34 08 1f 3e
       0.19776173 0.19978869 0.14026919 0.15530473
000040 cc ed 12 be 8c cb 32 3e ec 8e 92 bd 61 66 95 3e
       -0.14348525 0.1746046 -0.071561664 0.2917967
000050 ea e0 8f 3e ae cd 15 bd fc 46 06 be 30 20 4c 3e
       0.28101283 -0.036573105 -0.13113016 0.19934154
000060 85 b8 c8 3d 39 7e 2f 3e 48 97 d1 39 6a 74 2e be
       0.09800819 0.17137994 0.000399763 -0.17036596
000070 e9 52 b7 3d 7c 43 bb 38 dc 43 f9 bb f1 ab 7d be
       0.08951361 8.929425e-05 -0.0076069664 -0.24772622
000080 3d 3f 43 be 46 ba eb 3e 81 4c 9a be ef 49 d0 3e
       -0.19067092 0.46040553 -0.30136493 0.40681407
000090 fc b0 92 be fe e8 c5 3b 8e ca 13 3a 4f 9a 65 be
       -0.28650653 0.0060397377 0.0005637788 -0.22422145
0000a0 d3 6a 10 3e 40 52 66 be 4e 38 8a 3d 87 0b 0c 3d
       0.1410325 -0.22492313 0.067490205 0.03419068
0000b0 8d c3 08 3e 57 6b 9e be de 5c bb bc 1b c4 3a be
       0.13355847 -0.3094127 -0.022871431 -0.18238871
0000c0 4c c2 2d 3e 0b 2f a7 3e 7a e4 33 be 02 41 7f 3e
       0.1696865 0.32653078 -0.17567626 0.24927142
0000d0 d3 bf 3a 3e 53 7c 94 3e 5a 26 e4 3e dd 15 e8 3d
       0.18237238 0.29001102 0.4456051 0.11332295
0000e0 f3 dc 05 3d d4 5c 91 3e b2 e1 79 bc ad 30 53 be
       0.032681417 0.28391135 -0.015251564 -0.20624037
0000f0 ed 31 c9 bd 35 48 5a 3e 9f 03 91 3e 27 6d a0 3e
       -0.09823976 0.21316607 0.28323075 0.31333277

encoder.2.weight f4 [16, 64]
000000 78 cc 34 3d db 39 9d 38 8c ff f0 b7 2d 70 b3 38
       0.04414031 7.49712e-05 -2.8729228e-05 8.5562795e-05
000010 36 67 07 bd 00 13 97 39 37 ac 14 3d f4 bd 9a b8
       -0.033057414 0.0002881512 0.03629705 -7.378674e-05
000020 68 20 42 b9 98 d2 20 3c bf 75 f0 bc dd 80 eb 3b
       -0.00018513354 0.009815834 -0.02935302 0.0071869926
000030 21 af 1d 39 1f da 4b ba d0 09 b4 39 5b bd 1e bd
       0.00015037927 -0.0007776338 0.00034339586 -0.038754802
000040 bc 20 90 3c 6a 9d 58 3a 26 db 49 3c c5 2a f4 b8
       0.017593734 0.00082632026 0.012320315 -0.00011642793
000050 6d b7 93 39 a7 24 08 bc e5 7d dd 38 5a c6 f1 3b
       0.00028174688 -0.00830952 0.00010561551 0.0073783817
000060 c6 29 97 bc 5c 2a 89 b8 2e e6 b7 b8 23 ca 8d 3b
       -0.018452536 -6.540559e-05 -8.768994e-05 0.004327075
000070 ec 23 2b bd 7e ac 59 ba 4a 5b 35 b8 3c 1f 58 bd
       -0.041782305 -0.00083035964 -4.3238782e-05 -0.052764162
000080 60 03 1f bd ba b3 e6 3c 9e 88 73 bc 4a d3 50 3a
       -0.038821578 0.028161872 -0.014864115 0.0007966055
000090 e1 36 75 38 7d dc 05 b9 1c fb aa 3c a0 36 bc bc
       5.8463662e-05 -0.00012766007 0.020871691 -0.022975266
0000a0 15 39 5b bd 2a 38 37 bc 67 81 c5 3c b0 47 d1 bc
       -0.053521235 -0.011182824 0.024109555 -0.025546879
0000b0 03 82 36 3a b7 ec 64 ba c8 c8 37 35 81 f9 3d 3d
       0.0006962122 -0.0008732783 6.846499e-07 0.046380524
0000c0 ba ed 07 ba 02 c4 51 b5 8a 77 48 b9 d4 bb b0 3b
       -0.00051852653 -7.8143796e-07 -0.00019118018 0.0053934846
0000d0 25 b1 7a bb 9c 04 8b 3c 75 c1 43 b9 6d 36 a1 b7
       -0.003825256 0.016969971 -0.00018668718 -1.921804e-05
0000e0 61 44 fc 3c 88 cf 20 b9 aa a3 f3 39 a8 22 0c bd
       0.030794324 -0.000153361 0.0004647051 -0.03421274
0000f0 4f ed 03 3d f8 cc a5 bc 39 0d 52 bd 0a 3b 58 3a
       0.032208737 -0.020239338 -0.05128214 0.00082485436
000100 82 70 b4 3d f3 e3 e7 3c 46 01 35 bd 04 de b0 bd
       0.08810522 0.028306937 -0.044190668 -0.08636096
000110 8f 02 af 3c 2a d2 b0 bd a3 76 07 3d 4c f8 00 be
       0.021363525 -0.086338356 0.033072125 -0.12594718
000120 ca ba 9d bc d3 fb 43 bd 4b bd 55 bd cc 80 ab bc
       -0.019254107 -0.04784758 -0.052182477 -0.020935439
000130 1d fc d4 bb c4 6f e2 3d 37 4d 4d bd bd 7d 48 b9
       -0.006499781 0.11056474 -0.050122466 -0.00019120327
000140 08 95 5a ba 84 a9 a0 bd 83 df ed b9 92 63 73 b8
       -0.00083382474 -0.078448325 -0.00045370692 -5.8028447e-05
000150 4a c0 3e 3d 25 58 09 bd b0 eb 9a bd 76 75 7f 3b
       0.0465701 -0.033531327 -0.07564485 0.0038979924
000160 6a 12 b2 bc f8 52 da b5 50 ef 98 bc 22 be 87 3d
       -0.021737296 -1.6266413e-06 -0.0186688 0.06628062
000170 0b 08 9a bc 72 3c cc 37 7b ef 0f bc 3e 06 8f bd
       -0.018802663 2.4346842e-05 -0.008785124 -0.069836125
000180 31 7b e0 3c ce 44 91 3d c4 54 45 bd 34 71 c2 3d
       0.027402492 0.070932016 -0.048176542 0.09494248
000190 57 46 85 bc e4 3a 22 b9 15 de f4 bb 26 00 9c 37
       -0.016268892 -0.00015471462 -0.0074727633 1.8596718e-05
0001a0 85 07 28 39 a3 95 44 3d 5a b4 b9 3d 76 21 8b 3d
       0.0001602453 0.047994267 0.090676025 0.067934915
0001b0 fa 51 47 3d 25 6a 4b 3d 82 41 bd 3b 9e 15 f7 bc
       0.048662163 0.049661774 0.0057756314 -0.030161675
0001c0 3e ad 99 bd 62 4c cc 3c 6d e2 f5 38 d3 b3 45 3a
       -0.075037464 0.024938766 0.000117246855 0.00075417495
0001d0 f4 06 88 35 6e 96 89 3d f0 60 6d 3c 2a 13 cf 3d
       1.0134813e-06 0.06718145 0.014488444 0.10111077
0001e0 62 5d 81 38 8e ab 09 3a 46 59 be bd e8 5a 72 39
       6.168593e-05 0.0005251699 -0.09294371 0.00023112784
0001f0 29 c9 31 bd 8f d0 6c bd 49 64 05 3d 35 f2 f4 bc
       -0.043404732 -0.057816084 0.032566343 -0.02990065
000200 f6 3d 3a ba 6a 43 3d ba 02 b4 93 bc 8c 81 fa 38
       -0.000710457 -0.00072198233 -0.01803017 0.00011945059
000210 5b d6 a8 bc 8e 0a 3d 3d 0a 9d c6 3c 9e 83 13 bd
       -0.020610025 0.046152644 0.024244804 -0.03601419
000220 15 1b 57 bc da 8b b8 b9 49 58 a6 39 cb 36 8c bb
       -0.013129015 -0.00035199412 0.00031727765 -0.004278993
000230 ed 79 1b 3a cf b6 f7 bc b1 1e 36 3a 14 3d 1b b9
       0.0005930949 -0.030238537 0.00069473224 -0.00014804705
000240 09 bb 4b 3c 6e bb 4a bd 1f 89 d1 38 41 de 4f 3a
       0.012434729 -0.049495153 9.9914374e-05 0.0007929542
000250 4a 93 9b 3c 49 c6 21 b9 f8 3a 80 b9 c7 c1 f9 3c
       0.018991131 -0.00015428023 -0.00024457998 0.030487908
000260 55 6a 47 ba e7 87 43 bd 7c f9 01 bc be 66 05 bc
       -0.0007607092 -0.04773703 -0.007933017 -0.008142171
000270 6f 9e 86 3b e9 50 21 3a 01 df f7 bc 52 f1 80 3c
       0.004108242 0.0006153719 -0.030257704 0.01574007
000280 26 0c a8 bc 28 ec 02 bc 0e ec 59 ba 07 27 7d 39
       -0.020513605 -0.007990874 -0.0008313068 0.00024142499
000290 f8 d3 19 b8 8c a5 a4 3c d7 7e 5a ba a3 96 4c bd
       -3.6675454e-05 0.02009847 -0.00083349406 -0.049948346
0002a0 bd dc 9e b8 02 6b 58 bb 06 b7 1c 3d 81 10 9c 3b
       -7.575143e-05 -0.0033022766 0.038260482 0.0047627096
0002b0 e0 ea 2b bb 43 c8 83 b9 17 71 28 bd d5 4e 46 3b
       -0.0026232526 -0.00025135474 -0.041123476 0.003025939
0002c0 8c 72 41 b9 ab 92 d5 3c 03 ee 88 3c 27 d5 05 3a
       -0.00018448586 0.026070913 0.016715055 0.00051053095
0002d0 da 53 16 35 1a 05 0f bc 38 20 31 3d 2a a9 fa bb
       5.6001375e-07 -0.008729244 0.043243617 -0.0076495605
0002e0 8e 4f 34 bd 27 33 b7 bc 22 b4 25 ba a4 e2 fa bc
       -0.04402118 -0.022363259 -0.00063210924 -0.030625649
0002f0 38 c0 8e bc 1f 42 e7 b8 96 6a 5d 3d b7 3f a7 bb
       -0.017425641 -0.000110272544 0.054056726 -0.005104031
000300 98 9a a8 bc 58 f6 92 3d aa 49 42 3a e4 77 c2 3d
       -0.020581529 0.071758926 0.00074114895 0.094955236
000310 01 c5 ee 3c 33 e9 15 3e 73 59 57 b9 c5 5c e7 3d
       0.029146673 0.1463974 -0.0002053732 0.11296991
000320 0b a9 20 b9 c9 0f 1d bd 66 34 8c bc 08 57 8e b8
       -0.00015321762 -0.038345132 -0.01711483 -6.7872985e-05
000330 ed 58 d1 b8 7d 52 f5 3d c4 22 3b 3e 73 11 00 3d
       -9.98246e-05 0.11978624 0.18274981 0.03126664
000340 08 95 c4 3c d7 98 db bc fc 26 0c bd d3 9b 7e bc
       0.023996845 -0.026806278 -0.034216866 -0.015540081
000350 d3 36 8d 3b d5 0e 11 3e 5b 24 96 3c 5f e8 b5 bc
       0.004309514 0.14165814 0.018327883 -0.02220553
000360 bf 1e 0a 3c ef 5b e4 3b de a4 b6 3c 55 40 03 bd
       0.008430182 0.006968967 0.022295412 -0.032043774
000370 0b 2a 15 3c 3d 47 b1 bb 9a 49 bb ba b1 50 2e bd
       0.009104262 -0.0054101036 -0.0014288903 -0.042557422
000380 ce b4 91 3d 34 e5 bf 3d be f2 1c b8 c3 6a 2f 3e
       0.07114564 0.09369889 -3.741937e-05 0.1713057
000390 d7 a3 4a bd ac 1e 25 bd 02 95 2e 3d c3 0b 86 bb
       -0.049472656 -0.040312454 0.042622574 -0.0040907576
0003a0 f4 83 f0 bc e0 74 41 bd 92 6f e9 3d ef 00 3f 3e
       -0.029359795 -0.0472306 0.113982335 0.186527
0003b0 0c 04 e7 3c 91 19 05 3d 88 80 5a 3a e9 88 a0 bc
       0.028200172 0.032495085 0.00083351927 -0.019596534
0003c0 7e ae 25 3d ba bb 9a bd e4 54 1b 39 78 03 aa 38
       0.04044961 -0.07555337 0.00014813576 8.106878e-05
0003d0 fc df 26 bd f7 6a e3 3d b4 4b eb 3c cd 14 15 3d
       -0.040740952 0.11104386 0.028722622 0.03639679
0003e0 50 af cf bb 50 bc 6c b7 fc dc 01 3e 1f 37 bf ba
       -0.0063380376 -1.4110541e-05 0.12681955 -0.0014588571
0003f0 17 0f 9d 39 73 11 aa 3d db 02 e4 3d c5 69 3b 3d
       0.00029956616 0.083041094 0.11133357 0.045755167

encoder.2.bias f4 [16]
000000 04 a3 e1 b8 b0 d0 8e bd 49 c4 f3 3b ab 0e 64 3d
       -0.000107592 -0.06973398 0.0074391705 0.05567805
000010 77 9a 46 39 1d 6f 25 bc 27 c8 fb 3d c8 bd 99 37
       0.00018940294 -0.010097292 0.122940354 1.8327395e-05
000020 85 1d d1 3d 39 10 26 3e 6c 7c 3e b9 5a 89 02 bd
       0.102107085 0.16217126 -0.00018166163 -0.03186927
000030 ca f1 0a b7 13 c7 38 3d 42 7c 4a bc 19 a4 d0 3c
       -8.281737e-06 0.045111727 -0.012358727 0.025468873

decoder.0.weight f4 [64, 16]
000000 8c 80 be 3d b8 bb 20 3a 66 90 5a ba 32 e6 ea bd
       0.09301862 0.0006131488 -0.0008337557 -0.114696875
000010 23 5c 4d ba 42 6f 04 3e 61 97 1e be 4c a8 99 bd
       -0.0007833859 0.12933066 -0.15487434 -0.07502803
000020 9a a1 59 3e 60 b6 ca 3c 99 33 56 bd 71 ec 05 3e
       0.21253052 0.024745166 -0.0522953 0.13078476
000030 db 1b a2 3c ea a1 07 3e cd c7 07 b9 fe 4a af bd
       0.019788673 0.13245359 -0.00012949035 -0.085592255
000040 ce 32 ad 3d 1d e3 52 3e 2d 78 4b bd d6 0a a7 bd
       0.08456956 0.2059445 -0.049675155 -0.08156364
000050 54 a7 8b 3c b0 d1 df 3d 90 7a 2f be ae 46 23 bc
       0.017047562 0.109286666 -0.17136598 -0.009965582
000060 3c 19 05 3e 51 87 e2 bd 02 88 59 ba 2e c6 c1 3d
       0.12997907 -0.11060966 -0.000829816 0.09461628
000070 0c b3 18 bb 32 8c 1a 3e 1a 0a 58 3e 86 b4 1d 3e
       -0.002330008 0.15092543 0.21097603 0.15400895
000080 07 d5 a3 3d 2b 02 86 bc 25 9a 23 3e a5 c0 f7 3d
       0.07999616 -0.016358456 0.1597677 0.12097291
000090 8d 7a 8b bd bd 5a c7 3c 9b 8b 0b 3e d8 df cd 3c
       -0.06810484 0.02433526 0.13627474 0.025131151
0000a0 b0 a9 29 3a c5 2e 30 be 81 e3 a4 bd 9d fc 6e bd
       0.0006472124 -0.17205341 -0.080512054 -0.05834638
0000b0 36 14 d6 3c 62 a2 a7 bd 70 11 39 bd 23 b2 51 bd
       0.026132684 -0.08185269 -0.045182645 -0.051195275
0000c0 22 60 4e bd 31 9a 78 3e 99 88 b4 3d 58 c5 96 3e
       -0.05038465 0.2427757 0.088151164 0.29447436
0000d0 f7 a4 8b 3d 5a 10 a8 b9 38 e6 a6 bd d5 c9 14 3e
       0.06818574 -0.0003205564 -0.081493795 0.14530118
0000e0 79 7f 23 be e1 db 3d 3d 84 6f 44 bd cc 92 73 3e
       -0.15966596 0.04635227 -0.047957912 0.23786467
0000f0 6a 9f ad bd 6e b4 30 3e da 5e 68 3d 77 a8 8b 3e
       -0.084776714 0.17256328 0.056731082 0.27276966
000100 5e bf 00 39 30 29 71 3d 9c 18 f2 bd fe 3e 17 3e
       0.00012278321 0.05887717 -0.118211 0.14770123
000110 c1 d2 dd 39 4b 05 f5 38 e6 b3 99 3e 22 fd 2a be
       0.0004230943 0.00011683496 0.30020064 -0.16698125
000120 d5 1e 97 3e e4 65 a1 3e ff 22 bc bd d4 f7 06 be
       0.2951571 0.3152305 -0.091863625 -0.13180476
000130 e2 9e 10 be 87 8c a6 3d 62 33 23 be 25 29 db bd
       -0.14123109 0.08132272 -0.1593757 -0.10701207
000140 44 d1 62 bd 82 2d 38 b9 5b f1 a2 3d 43 d3 18 be
       -0.055375353 -0.0001756456 0.07956191 -0.1492434
000150 19 5c 33 bd 8d ab 98 bd 45 d2 ed bb 43 8c f6 bc
       -0.043789003 -0.07454596 -0.007257732 -0.030096179
000160 85 71 05 bd 71 d4 37 3d 4d 52 30 3d 16 4b 02 be
       -0.032578964 0.044880334 0.04304724 -0.12723956
000170 26 3b 1f 37 19 0b 18 3e fd 62 b3 bc 3f 4e 54 bd
       9.49091e-06 0.14847983 -0.021897787 -0.051832434
000180 cc 72 16 bd b1 2f 57 bd da 48 3c bc 14 4d 85 3e
       -0.036730573 -0.052535716 -0.011491979 0.26035368
000190 b4 59 32 3e 40 9e b2 39 62 6e 2c 3d 52 a8 8c bd
       0.17417032 0.0003406871 0.042097457 -0.06868042
0001a0 24 14 89 3e 6c b5 e5 3d 33 a3 30 be 6a a5 92 bd
       0.2677318 0.11216244 -0.17249756 -0.071604565
0001b0 0a 5e 9e bd a9 d4 8e bd 06 e1 7b 3e 4a 30 16 3e
       -0.0773278 -0.069741555 0.24597558 0.14666858
0001c0 0e 89 17 be eb 4b 12 3c 23 d9 a0 3c f1 8b db bd
       -0.14798376 0.008929233 0.019634789 -0.10720051
0001d0 16 a3 c9 3d 22 fd 85 bd e6 4f d3 bd 13 3a 14 3e
       0.09845559 -0.06542422 -0.10317974 0.14475279
0001e0 b4 90 04 3e 2b ca 2e be 1e 9a 52 ba c1 a7 70 3e
       0.12945825 -0.17069308 -0.00080338295 0.23501493
0001f0 8d 85 24 3b d1 09 93 bd 46 87 4b be a5 3b 14 3e
       0.0025104017 -0.07179607 -0.19875821 0.14475878
000200 c9 86 6a bd 8d fc a1 bd 61 90 27 3e 5a fe 97 ba
       -0.057257447 -0.07909498 0.1636367 -0.0011596188
000210 07 d3 4e 3d 36 95 31 3e 46 b8 c1 bd d2 a9 ae bd
       0.05049422 0.17342076 -0.094589755 -0.085284844
000220 17 f0 ad 3d 24 0f 0e 3c 9d e7 14 be 54 a7 bd 37
       0.08493059 0.008670602 -0.14541478 2.2608474e-05
000230 f1 c4 95 3d 1e 7d 20 3d 38 8d e6 36 50 8e d7 bd
       0.07312954 0.03918182 6.870974e-06 -0.10525191
000240 8a 99 7a bd 31 9f 1b 3e 35 4c 46 3b 54 63 b4 bd
       -0.061181583 0.15197445 0.0030257825 -0.08808008
000250 4e 47 09 3d 5b 96 32 3e ca d0 16 bd 13 6b bd 3d
       0.033515267 0.17440169 -0.03682021 0.092489384
000260 bb 55 d5 3d 76 8a 9d 3c 38 bc 31 3e d5 15 1c 3e
       0.104167424 0.019231062 0.17356956 0.15242703
000270 88 ec 4c 3d d6 35 c8 3d 6c 2d 2e 3d 61 03 29 be
       0.05003026 0.097758934 0.042523786 -0.16505195
000280 d1 3c ac bc de 0a dc 3c 35 2a b8 b8 eb 75 19 be
       -0.021025093 0.02686065 -8.7816654e-05 -0.14986388
000290 ee d6 37 3c ce 84 29 3e 42 7a bd bd e7 03 bd bd
       0.011220677 0.16554567 -0.092518345 -0.0922926
0002a0 6d c0 ba bd 1b 00 e8 3d e0 cc 09 be e7 a8 0e bd
       -0.091187336 0.11328145 -0.1345706 -0.034829047
0002b0 fc 64 d4 3d 20 36 85 3d 70 29 e8 bd 8b 40 43 b9
       0.10370824 0.06504464 -0.113360286 -0.00018620693
0002c0 dc e6 32 b8 fd 63 13 be 28 42 0f b9 7d 92 f2 bd
       -4.265351e-05 -0.14393611 -0.00013662188 -0.11844347
0002d0 b8 22 b1 b9 46 31 09 3e 5b f7 9f bd 9f e6 be 3d
       -0.00033785938 0.13397703 -0.07810851 0.09321331
0002e0 ef e4 e7 bd 37 45 cc bd 9a 8b f7 bd 12 7b a6 3c
       -0.113229625 -0.09974139 -0.12087174 0.020322356
0002f0 e9 20 9f 3d 8d 9a 4c be e9 31 d8 3c 43 97 d7 3d
       0.07769949 -0.19980831 0.026390987 0.10526898
000300 0f 0e 9c b8 13 7d 6e 3e c1 5d e5 b5 06 fd 5b be
       -7.441278e-05 0.232899 -1.7089116e-06 -0.2148324
000310 75 a7 c7 bd 3a 05 12 3e 66 de 05 3e a1 56 ec bb
       -0.09748737 0.14259806 0.1307312 -0.0072124754
000320 d7 28 41 be 68 52 2d 3e 87 9c 29 be b7 f4 3f 3d
       -0.18863235 0.16925967 -0.16563617 0.046864238
000330 64 e4 dc 3d 74 9a 35 be 6f 4d 22 be 16 b4 26 3e
       0.107857496 -0.177347 -0.15849851 0.16279635
000340 19 d8 ae 3d 11 c3 3c 39 d6 67 63 bb 4b 68 be bc
       0.08537311 0.00018001745 -0.0034699342 -0.02324309
000350 5a dd 9b 39 6f 19 b6 bd 4d d8 36 b9 3a 06 bb 3d
       0.00029728824 -0.0889157 -0.00017437451 0.09132047
000360 9a 31 c3 bd bf cb 02 3a d1 7e 8f bd 8b a7 05 3e
       -0.09530945 0.0004989467 -0.0700661 0.13052194
000370 b8 2e 00 be ae 63 d4 3c 90 28 bc 3d 98 72 8a bd
       -0.12517822 0.025926437 0.09187424 -0.06760138
000380 6c 8e 2a 3e d2 ff 9e bd c2 fd 17 be ef 6a 4c 3e
       0.16655892 -0.077636376 -0.14842895 0.19962667
000390 27 78 dc bd 95 dd b8 bd d5 5d 92 3e 87 40 32 39
       -0.10765105 -0.090266384 0.28587213 0.00016999441
0003a0 14 e4 ba bb 42 ce 9a bc 03 0e d9 bb 89 de 8d bd
       -0.0057034586 -0.01889718 -0.006623985 -0.06927211
0003b0 c0 e0 d3 b9 7d 91 a3 bc de b0 15 be 64 18 94 3e
       -0.00040412508 -0.019966835 -0.1461825 0.2892486
0003c0 45 69 3d 3d a5 80 49 bd 7d ed 5d 3c a9 11 87 3e
       0.04624297 -0.04919495 0.013545391 0.2638066
0003d0 1f 8d 14 be c2 55 66 3d 87 12 18 3e cb 81 17 be
       -0.14506958 0.05623413 0.14850818 -0.14795606
0003e0 6d 02 c8 3c b3 27 7a 3e 23 df 32 bc 83 2f b7 bd
       0.02441522 0.24429207 -0.010917458 -0.08944609
0003f0 48 2e 97 bd 27 2b 93 3e 74 d6 8f b9 6d 1d 34 be
       -0.07381874 0.2874386 -0.00027434865 -0.1758935

decoder.0.bias f4 [64]
000000 c6 c6 44 3d f0 58 ed 3b a6 f2 83 3d 7b d8 36 be
       0.048041128 0.007243268 0.06442766 -0.17856018
000010 ab 11 fd 3d 80 70 05 be b7 3f 42 be 23 90 29 3d
       0.123568855 -0.13031197 -0.18969618 0.041397225
000020 96 53 32 3e 5f 71 64 3c ae 2e 41 3a 18 83 1e be
       0.17414698 0.013943045 0.00073693215 -0.15479696
000030 70 65 f6 3d 90 03 d0 3d 33 f2 0b 3e 42 99 06 3e
       0.120310664 0.101569295 0.1366661 0.131444
000040 73 03 7e 3d aa 46 3c 3e 68 15 20 be f6 8c e2 3d
       0.06201501 0.18386331 -0.15633166 0.110620424
000050 f5 3d c4 bc 3e e6 3f 3e 35 61 50 3e 39 16 d3 3d
       -0.023955325 0.18740174 0.20349582 0.10306973
000060 2a 54 b6 bd 32 e2 35 3b 31 f4 7d 3d 27 63 05 be
       -0.08902772 0.002775323 0.062000457 -0.13026105
000070 29 2e 04 3c c9 5e 8c 3d 18 0d 80 bd d3 36 4c 3d
       0.008067646 0.06854016 -0.062524974 0.049856972
000080 dd f0 49 3c 77 a3 8b 3d 60 a9 8a 3d 2b d0 3a 3e
       0.012325493 0.06818288 0.06770587 0.18243472
000090 70 ec 02 bd f2 57 97 bc f3 a1 b9 3d 50 f0 86 bc
       -0.031963766 -0.018474553 0.090640925 -0.016472012
0000a0 4c 14 69 3e 22 13 81 3e cb 76 3c 3e fa 98 fa bd
       0.22761649 0.2520991 0.18404691 -0.12236209
0000b0 22 ad 9c 3e e4 67 29 3e b3 f8 87 bd 86 b4 d4 3d
       0.3060084 0.16543537 -0.066392325 0.103859946
0000c0 f6 74 35 be 5b 13 5c 3d 78 92 88 3d 1c 1c a6 bc
       -0.17720398 0.053729396 0.06668562 -0.020277075
0000d0 99 24 17 ba 4d 54 e1 bd b5 45 be bd 5d 52 77 be
       -0.00057656463 -0.11002407 -0.09290639 -0.24152513
0000e0 84 ee 6a 3d d0 a4 3a 3d f7 9f 08 bd 81 2d 5b 3c
       0.057356372 0.045567334 -0.03335568 0.013377548
0000f0 84 8f e7 36 b1 a9 0a be 23 96 0b be 51 d4 b5 3d
       6.901044e-06 -0.13541295 -0.13631491 0.08878387

decoder.2.weight f4 [6, 64]
000000 c9 7f cd 3d 73 9d da 3d 9f 87 5a ba f1 be f0 3c
       0.10034139 0.10674562 -0.0008336249 0.029387923
000010 54 a5 ea bc b1 38 4f bd d4 5a a9 bd c6 93 ad bd
       -0.028643288 -0.050591175 -0.08269277 -0.08475451
000020 b4 34 0a 3d f4 d9 ff bc 12 69 57 ba 11 09 37 bd
       0.033741668 -0.031231858 -0.0008217256 -0.04468638
000030 7d b2 95 bd 70 06 a5 38 a3 49 a4 3c ef 89 03 bd
       -0.073094346 7.869012e-05 0.020054644 -0.032113966
000040 d2 30 54 b7 73 85 ac 3d 64 86 e1 3c e0 b2 5a 3d
       -1.2647552e-05 0.08423891 0.027529903 0.053393245
000050 7c 96 c8 b8 3d 59 50 3c 32 29 31 3d 4b 77 f1 3c
       -9.564773e-05 0.012716589 0.043252178 0.029475829
000060 87 21 9a 3c 93 ec de 38 6f 0b 0a bb 06 4a 57 ba
       0.018814815 0.0001062985 -0.0021063944 -0.00082126295
000070 d4 b6 a5 bd 34 98 15 bd f4 80 48 37 be 0a 32 3d
       -0.08091512 -0.036522105 1.1950953e-05 0.043467276
000080 85 79 ab b9 c6 44 35 b8 9c e4 47 bd b4 2c 85 bc
       -0.000327062 -4.3217813e-05 -0.048802003 -0.016256668
000090 46 1e a2 3c 00 62 c5 bb fd a8 3e 3c a7 ce 85 39
       0.019789826 -0.0060236454 0.01163697 0.00025521705
0000a0 60 7c d8 3d 12 32 81 bd c6 b0 f6 bd 27 04 1b 38
       0.10570598 -0.06308378 -0.120454356 3.6958747e-05
0000b0 57 b6 96 3d 8a 0b 93 3c 64 2b 40 b9 32 c8 5e bd
       0.07358997 0.017949838 -0.00018326711 -0.05439014
0000c0 57 a8 ac bc 73 65 2e 3d ae 3e c5 3d ad 92 89 bd
       -0.021076364 0.04257722 0.09631096 -0.06717429
0000d0 17 d5 9d 39 ab 52 ae 3d e0 22 a8 3d 1f e4 50 bd
       0.00030104138 0.085118614 0.08209777 -0.050998803
0000e0 17 53 7f 38 a1 8d 97 bd 71 1b f4 38 c0 ab 85 3d
       6.087412e-05 -0.074000604 0.00011639938 0.06526899
0000f0 5c 07 c9 bc 59 21 71 bd 2f c7 72 bd 89 7c 00 be
       -0.024539642 -0.058869693 -0.059271988 -0.12547506
000100 84 77 75 3d 9d ce 6e bd f8 a4 8a b7 c9 c6 81 bd
       0.059928432 -0.05830251 -1.6527702e-05 -0.063367434
000110 f4 af 30 3c 08 95 80 3c 6a 77 9e 3d 13 3a 1e bc
       0.010784138 0.015696064 0.0773762 -0.009657401
000120 c2 76 c7 3c d2 29 e8 38 01 e6 91 39 1d 14 99 bc
       0.02434862 0.00011070412 0.0002782792 -0.018686349
000130 95 cd 88 bc e8 25 ff 3c 6f c2 51 bc c6 55 91 bc
       -0.016699592 0.031146005 -0.012802704 -0.017741095
000140 47 e5 54 3d 14 f4 cc bd 70 84 0e 3e fa 57 49 bd
       0.05197647 -0.10007492 0.13917708 -0.049156167
000150 77 aa b9 3a e8 da 9f 3d 11 53 a7 3c 03 66 c7 bd
       0.0014165182 0.07805425 0.020425351 -0.09736254
000160 7e fc e7 bb 37 c9 0c 3c 52 33 b4 b9 d5 12 12 ba
       -0.00707966 0.008592895 -0.00034370512 -0.0005572264
000170 31 ef a5 bd 8b 95 93 3d 43 8e 4d 3a 1d 51 52 3d
       -0.08102263 0.072062574 0.0007841328 0.051346887
000180 50 d3 55 36 15 9d 2c 3c 6a 55 f7 3d 01 7c 54 bd
       3.1862473e-06 0.010535498 0.12076838 -0.05187607
000190 16 aa 18 bd 0b b6 f8 3d d3 0e a8 3d c9 18 71 3c
       -0.03727158 0.12144097 0.082059525 0.014715382
0001a0 e4 cc b2 bd a7 9f 0d 3e 64 9d 13 3d d5 5b 40 3d
       -0.08730486 0.13830434 0.03603877 0.046962578
0001b0 07 ad cf bd d1 61 da 37 2e c1 40 3c 50 3c 4c bd
       -0.10140424 2.6033174e-05 0.011764808 -0.049862206
0001c0 9a e2 b5 3d 06 66 1f 3d de ce 99 3d eb 9d c8 3c
       0.088811114 0.038915657 0.0751016 0.024489364
0001d0 04 72 57 3b b9 ca fa 3d be 3b cd bd c6 cd 1f bd
       0.0032874355 0.122456975 -0.100211605 -0.0390146
0001e0 2f 53 3e ba 81 9b 9a 3d 3d d6 8b b8 d1 7b a2 bd
       -0.000726032 0.07549191 -6.6679415e-05 -0.07933772
0001f0 c2 78 22 3d ce 71 6d bd 6d 36 e3 bd eb 08 92 bd
       0.039665945 -0.05796986 -0.11094365 -0.07130607
000200 04 80 a4 bd 13 26 0c be d6 56 12 bd 3a 97 80 bc
       -0.080322295 -0.13686399 -0.035727344 -0.01569711
000210 b2 2d 93 3d 2c 78 d8 bb 3c 1d b9 bd 35 6e 1e bc
       0.0718645 -0.0066061225 -0.09038779 -0.00966983
000220 08 02 99 b9 e2 2f cf 3c 5c 4e 48 bd b2 4d 02 3e
       -0.00029183947 0.025291387 -0.048902854 0.12724951
000230 dc 13 a3 bd 1f d5 0c 3d f3 ba 22 3d f7 2e 8a bd
       -0.07962772 0.034382936 0.03972907 -0.06747239
000240 00 52 b2 b8 25 3b 57 3d 04 c4 e5 3d c5 13 bd 3d
       -8.502975e-05 0.05254664 0.11219028 0.09232286
000250 d3 30 d3 3c 9e 75 50 bd ed 0d 85 3d 76 a0 bf bd
       0.025780117 -0.05089342 0.06496797 -0.09356777
000260 d2 d7 94 bd dd 9c 5f 3d 5e 49 60 bd b8 58 47 39
       -0.07267727 0.054592956 -0.05475747 0.00019011169
000270 d6 b6 08 3d 4b fc 7b 3d 0a 79 23 3d 8e ea 22 bd
       0.03337749 0.061519902 0.039910354 -0.03977447
000280 5c 68 09 3d 95 87 82 bc 25 29 48 bd b0 bd 8a 3d
       0.03354679 -0.015933791 -0.048867363 0.06774461
000290 d9 f0 80 bc 17 1b 90 3d 23 b1 cb bd 05 83 16 3d
       -0.015739845 0.07036417 -0.099458955 0.036746044
0002a0 c1 59 e4 bd 68 4c 91 3c e5 6d d7 3c 84 f6 3e 3c
       -0.11149932 0.017736629 0.026297519 0.011655454
0002b0 6b 73 73 bc 74 ca 76 bc 82 a3 00 b8 81 b7 76 3d
       -0.014859061 -0.015062917 -3.0669857e-05 0.060233597
0002c0 5f c8 1f bd d8 47 c2 b9 63 2a 07 be 47 17 c3 3c
       -0.03900945 -0.0003705609 -0.13199763 0.02381481
0002d0 f9 c7 74 3c 43 26 24 3c 2e 1e 95 3c d0 ca 38 3c
       0.014940255 0.010018888 0.018202867 0.011278823
0002e0 bc e6 48 b9 16 8c 8f 3d c4 55 44 b9 ff 86 9e bc
       -0.00019159442 0.07009141 -0.00018723967 -0.01935148
0002f0 2f cf c6 3c ad 36 ac bd b9 c5 e7 bd a4 f2 6d 3d
       0.024268715 -0.08408866 -0.113170095 0.05809273
000300 e8 a0 b4 3d b2 d8 db 3d a8 82 79 3b d3 7b e8 3d
       0.08819753 0.10734691 0.0038072262 0.113517426
000310 4c fd cd bd 9f ca 06 bc a6 8e 0f bd 0b 4d 98 bd
       -0.10058078 -0.00822702 -0.03504815 -0.0743657
000320 4a 77 77 3c d6 3a 95 3b cd 31 17 3c 7a 36 89 bd
       0.015104124 0.004554133 0.009228182 -0.06699844
000330 21 fd f1 3d e6 e1 6f b9 ba 7e 82 bd 63 45 48 3c
       0.11815859 -0.0002287697 -0.063718274 0.012223574
000340 d3 be 69 b8 53 14 dd bd 94 84 f4 3d 24 a2 8c bd
       -5.5729248e-05 -0.10794892 0.1193935 -0.06866863
000350 d4 54 b5 38 ce 7c c3 bd 16 f3 ce 3d ca e6 6e 3d
       8.646553e-05 -0.09545289 0.10104959 0.058325566
000360 8a c2 e6 3d b0 fb 52 3d 2c 61 1e 39 34 c0 98 3c
       0.11267574 0.05150956 0.00015104254 0.018646337
000370 c2 87 e3 bd 14 bf c3 3d 6c 86 0e 3a 23 30 3c 3d
       -0.11109878 0.0955793 0.00054369005 0.045944344
000380 02 02 c5 3b 4f 84 5e bc d3 88 8f bd e0 ee 85 3d
       0.0060122022 -0.0135813495 -0.07008519 0.065397024
000390 a5 a6 97 bd 25 10 ba 3d ee d8 b7 3d 55 57 3b b9
       -0.07404832 0.090851106 0.08976923 -0.00017866243
0003a0 1a 34 2c bd 8c 04 0c bd 63 57 7f bd 7c 64 b0 39
       -0.042041875 -0.034184024 -0.062339198 0.00033644203
0003b0 95 dd ef 3d c3 08 87 3b 51 49 b8 39 3f 65 a9 3a
       0.11712185 0.0041209175 0.0003514984 0.001292385
0003c0 42 df c8 bc d4 7c 1e b8 b3 63 bb bd 77 93 bd 3c
       -0.02452052 -3.778639e-05 -0.091498755 0.023141606
0003d0 c9 b6 73 bc e9 d1 6b 3c a1 f2 83 3d 81 57 bc bc
       -0.014875122 0.014393308 0.06442762 -0.022990944
0003e0 6f 0c 6b 3c a3 36 2a 3b 5e be d7 3c 2f be b5 bd
       0.014346226 0.0025972507 0.026335891 -0.08874165
0003f0 cb c9 0c 3d c8 af d5 3d 71 d5 2d bd db 52 97 bd
       0.034372132 0.10433918 -0.04243988 -0.0738885

decoder.2.bias f4 [6]
000000 a9 99 36 3d 72 21 9b bd 98 5e bf bd 5c fe 0c bc
       0.044580135 -0.075747386 -0.09344214 -0.008605566
000010 b9 48 a6 bb 26 a2 75 bd
       -0.005074587 -0.05996909
