backend/ml/artifacts/autoencoder.pt (torch, 15621 bytes, 8 tensors)

encoder.0.weight f4 [64, 6]
0	0xbe847ac1	-0.25874904
1	0x3cb226b2	0.021746967
2	0xbe32ccaa	-0.17460886
3	0x3e888d35	0.26670232
4	0xbe9f3fab	-0.31103262
5	0x3e621246	0.22077283
6	0x3aa58481	0.001262799
7	0x3e13cab1	0.1443279
8	0xbde7208a	-0.11285503
9	0x3d982243	0.0742841
10	0xbea37ce5	-0.31931224
11	0x3e8766bc	0.26445568
12	0x3eab00c1	0.33399013
13	0xbd05ffaa	-0.032714523
14	0xbd89d72f	-0.06730496
15	0xbe81c4ed	-0.25345555
16	0x3ed352ba	0.41274053
17	0x3ea05708	0.313164
18	0xbd9687ec	-0.07350144
19	0x3e5edcd8	0.21763933
20	0x3e12d547	0.14339171
21	0x3e617078	0.2201556
22	0xbbe1199a	-0.006869507
23	0x393705c9	0.00017454395
24	0x399c150d	0.00029770323
25	0xbdd29684	-0.10282615
26	0xb5db63f0	-1.6345857e-06
27	0xbe6c8645	-0.23098095
28	0xbea40004	-0.32031262
29	0x3b6248a3	0.0034528158
30	0xbe8fa8bb	-0.2805842
31	0xbd84936d	-0.06473432
32	0xbe2f225e	-0.17102954
33	0xbe8d3ef2	-0.27587086
34	0xbd356647	-0.044286992
35	0xbe0555f1	-0.13021065
36	0xbe8a09c6	-0.26960582
37	0xbe82c5fb	-0.25541672
38	0x3ea703b8	0.32620025
39	0xbe0ce8b9	-0.13760652
40	0x3ea86d7c	0.3289603
41	0xbbc5345a	-0.0060182037
42	0x3e9bea0b	0.30451998
43	0xbc76c15d	-0.01506075
44	0x3ecd7715	0.40129915
45	0xbe0dfac6	-0.13865194
46	0x3edfde32	0.4372421
47	0xbe828fab	-0.25500235
48	0x3ead0b75	0.33797804
49	0xbd86c2f0	-0.0658015
50	0x3e835c3a	0.256563
51	0xbde8f414	-0.11374679
52	0x3eabdf80	0.33568954
53	0xbe33897a	-0.17532912
54	0xbe31eb87	-0.17375003
55	0x3cbf8731	0.023379894
56	0xbe5b47d0	-0.21414113
57	0xb8d76a5e	-0.00010271811
58	0xbdc146c9	-0.09437329
59	0x3e907b2c	0.28218973
60	0x3e45e384	0.19325072
61	0xbe1a826d	-0.15088816
62	0xbe090e92	-0.13384464
63	0xbec5e136	-0.38648385
64	0xbbf3049d	-0.0074163214
65	0xbda850a1	-0.08218504
66	0xbe50944f	-0.20369075
67	0xba56e2ee	-0.00081972673
68	0x3ec4fef5	0.38475767
69	0x3eacf314	0.33779204
70	0x3e8d68d2	0.27619034
71	0xbe55930f	-0.2085688
72	0xbe2a000e	-0.16601583
73	0x3c2119fa	0.009832853
74	0x3d97d554	0.07413736
75	0x3ea8896f	0.32917354
76	0x3e9c1d63	0.3049117
77	0x3eae1fcd	0.34008637
78	0xbe8bb81b	-0.272889
79	0x3d86e02b	0.065857254
80	0xbe9278ae	-0.28607696
81	0x3ea2c7f5	0.3179318
82	0x3d6e7541	0.05821729
83	0xbe95028d	-0.2910351
84	0x3e2e132c	0.16999501
85	0xbe752391	-0.23939349
86	0xbe89307b	-0.267948
87	0xbeb7881e	-0.35846037
88	0x3e2722f7	0.16321932
89	0xbe90183a	-0.28143483
90	0xbd7a038a	-0.06103853
91	0xbeb3c6e1	-0.3511267
92	0x3e605c6b	0.21910255
93	0x3e5c10f8	0.21490848
94	0x3e90d920	0.28290653
95	0x3ec38cb8	0.38193297
96	0x3e458f94	0.19293052
97	0x3ea30d41	0.3184605
98	0xb80413a6	-3.148955e-05
99	0xbe8aeb9d	-0.27132884
100	0xbbfb3fb0	-0.0076675043
101	0x3d91dcad	0.07122169
102	0xbe9f2e6d	-0.31090108
103	0x3e619ee9	0.22033276
104	0xbdd4a9d8	-0.103839576
105	0xbd7f51dd	-0.06233393
106	0x3e7536b9	0.23946656
107	0x3ea69c0a	0.32540923
108	0xbcccd6cc	-0.025004767
109	0xbd840ec9	-0.064481325
110	0xbe60585a	-0.21908703
111	0xbe073e5e	-0.13207385
112	0xbd625a44	-0.055261865
113	0xb81e989e	-3.781227e-05
114	0xbe378b0c	-0.17924136
115	0xbbdc1421	-0.0067162667
116	0x3979643c	0.0002378383
117	0x3da82a16	0.08211152
118	0xbdf1ffc7	-0.11816364
119	0x3e575a84	0.21030623
120	0x3eab5511	0.33463338
121	0x3ef1c236	0.47218484
122	0xbcbb4196	-0.022858422
123	0x3ce9e3e1	0.028551044
124	0x3debf1c1	0.1152072
125	0x3e953d12	0.29148155
126	0x3e97655b	0.29569516
127	0x3cd0f439	0.02550708
128	0xbe1718bf	-0.14755534
129	0x3d48acc9	0.048992906
130	0x3eefb539	0.4681795
131	0xbdb5414c	-0.08850345
132	0x3d870cc4	0.06594232
133	0xbe2791b8	-0.16364181
134	0x3ebb2627	0.36552545
135	0x3edf96a0	0.43669605
136	0x3e97820b	0.29591402
137	0x3e2e44c6	0.17018422
138	0x3dc2e019	0.095153995
139	0x3e8a99d0	0.27070475
140	0xbe6c1fde	-0.23059031
141	0xbda0331e	-0.0782225
142	0xbe477970	-0.19479918
143	0xbe2268ad	-0.15860243
144	0xbdc58a9d	-0.09645579
145	0x3da1c888	0.078995764
146	0xbe8c7562	-0.27433306
147	0x3ce5c16a	0.028046329
148	0xbd677c9a	-0.056515314
149	0x3e162f56	0.14666495
150	0x3eaa740e	0.33291668
151	0xbcb5f50b	-0.022211572
152	0xbe3c8954	-0.18411762
153	0x3ee33d5f	0.4438276
154	0x3ec8a87a	0.39191037
155	0xbe8c26e2	-0.27373415
156	0xbe93dad5	-0.28877893
157	0xbdc7f6fa	-0.09763904
158	0xbe915d9c	-0.2839173
159	0xb81a4b0f	-3.6786365e-05
160	0xbd294795	-0.04132803
161	0x3cb2302e	0.02175149
162	0x3e314100	0.17309952
163	0x3ac259ce	0.0014827789
164	0x3e97701a	0.29577714
165	0x3d6c8eef	0.0577535
166	0xbe914c95	-0.2837874
167	0x3e853bb9	0.26022127
168	0xbe56eec9	-0.20989527
169	0x3bc105ca	0.0058905827
170	0x3e15486b	0.14578407
171	0x3e0b3362	0.1359382
172	0xbea58252	-0.3232599
173	0x3e207b98	0.15672147
174	0x39500d14	0.00019841298
175	0xbd080af9	-0.03321359
176	0xbdb9a433	-0.09064522
177	0xba0fd23c	-0.00054863445
178	0xbe8185c7	-0.25297377
179	0x3a8fb068	0.0010962607
180	0xbe992754	-0.29912817
181	0xbd92938d	-0.07157049
182	0x3d0c9026	0.03431716
183	0xbe809d25	-0.25119892
184	0x3ee63312	0.4496084
185	0x3e27afe0	0.16375685
186	0x3e9c524c	0.30531538
187	0xbcfed0f6	-0.0311055
188	0xb89454b1	-7.072965e-05
189	0xbc6b2d64	-0.014354084
190	0xbe720c64	-0.23637539
191	0x3a56b90c	0.0008191026
192	0xbea398db	-0.31952557
193	0x3a9b56da	0.0011851445
194	0xbea6552f	-0.32486865
195	0xbe8418ae	-0.2580008
196	0xbd5aebc6	-0.053447507
197	0xbda13d7d	-0.07873056
198	0xbd9c1694	-0.07621494
199	0xbe3c76b0	-0.1840465
200	0x3e930666	0.2871582
201	0x3e874678	0.2642095
202	0xbd8c7cea	-0.06859763
203	0x3e208dcf	0.15679096
204	0x3e216497	0.15761028
205	0xbc91ef66	-0.01781435
206	0xbe6edd97	-0.23326717
207	0xbe8e4711	-0.27788594
208	0xbd9dcf16	-0.07705514
209	0xbe28f284	-0.16498762
210	0xbba4d431	-0.005030178
211	0xbd95be8c	-0.073117346
212	0x3e31fa35	0.17380603
213	0x3e2a086c	0.16604775
214	0xbe39abaa	-0.18131891
215	0xbe3e95cf	-0.18611835
216	0xbd7c0583	-0.061528694
217	0xbe695cfd	-0.22789378
218	0x3ec5929c	0.38588417
219	0x3c9d682a	0.019214708
220	0x3ebf7837	0.37396404
221	0x3eeb8977	0.46003315
222	0x3d698fe0	0.057021976
223	0xbe938daa	-0.2881902
224	0x3e83982c	0.25702035
225	0xbadcb7ea	-0.0016839479
226	0xbd998626	-0.0749629
227	0x3dead72c	0.11466822
228	0xbdd4d211	-0.103916295
229	0x3ea25c49	0.31711033
230	0x3e7822ed	0.24232073
231	0x3be9a286	0.00712997
232	0xbdec4f7e	-0.115385994
233	0xbd9199dc	-0.071094245
234	0xbe160631	-0.146508
235	0x3d066905	0.032815
236	0xbe960596	-0.29301137
237	0xbe97f201	-0.29676822
238	0x3e8ebe0c	0.2787937
239	0xbdc0b780	-0.0941
240	0xbe8591c8	-0.26087785
241	0x3a4efe9f	0.0007896218
242	0x3e7c5bb5	0.24644358
243	0x3898234b	7.2544986e-05
244	0xbd8d5ac2	-0.06902076
245	0xbded9184	-0.116000205
246	0xbeabef6d	-0.33581105
247	0x3caffab5	0.021481851
248	0xbe1e02a6	-0.15430698
249	0xbdc6d5f9	-0.09708781
250	0x3e9a63f8	0.30154395
251	0x3eb09774	0.3449055
252	0xbe0bd99b	-0.13657229
253	0x3e1bc2f2	0.15211084
254	0x3e258bb0	0.16166568
255	0x3d8c89d1	0.06862224

encoder.0.bias f4 [64]
0	0x3e581fef	0.21105932
1	0xbe85bfa8	-0.26122785
2	0x3e8e070f	0.2773976
3	0x3e9befe3	0.30456457
4	0x3e87ca9a	0.2652176
5	0xbaf0ca5d	-0.0018370856
6	0x3e3f0fde	0.18658397
7	0xbea6eba3	-0.32601652
8	0x3ea13ffe	0.31494135
9	0xbda07e7e	-0.078366265
10	0x3ebd57a1	0.36980918
11	0xbe440a12	-0.19144467
12	0xbe65366c	-0.22384042
13	0x3e8a1e12	0.26976067
14	0x3ea0c1ef	0.3139796
15	0x3dcc68bb	0.09980913
16	0x3e6b12bc	0.22956365
17	0x3c89232c	0.016740404
18	0xbe09c0c7	-0.13452445
19	0xbd724ec3	-0.059157144
20	0x3dcab0c7	0.09896999
21	0xbea880c6	-0.32910746
22	0xbe82885f	-0.25494668
23	0x3ea46bbc	0.32113445
24	0x3e310b0d	0.17289372
25	0xbdb0a8b1	-0.08625925
26	0x3df61e35	0.1201748
27	0xbe3963df	-0.18104504
28	0xbe99c97a	-0.30036527
29	0x3e1ced4d	0.15324898
30	0xbdb28604	-0.08716968
31	0xbd3aa5c3	-0.04556824
32	0xbe23f8e4	-0.16012913
33	0x3baf0763	0.0053414567
34	0xb7fc11ff	-3.0049121e-05
35	0x3ba17da4	0.0049283076
36	0x3e6f7e11	0.23387934
37	0x3e8bf191	0.27332738
38	0xb9fc9f15	-0.0004818371
39	0x3e7c0ee6	0.24615058
40	0xbde3970b	-0.111127935
41	0x3ecbe501	0.39823154
42	0x3e45e0b6	0.19324002
43	0xbc9bc757	-0.019015951
44	0x3cc978fd	0.024593825
45	0x3dbaa84a	0.0911413
46	0xbe4680f7	-0.19385134
47	0x3cf598e7	0.029980136
48	0x3e135d95	0.14391167
49	0x3edefe28	0.4355328
50	0x3e691b62	0.22764352
51	0x399e3334	0.00030174258
52	0x3d087aea	0.033320345
53	0x3e9e4e32	0.30919033
54	0x3e8cbbc6	0.2748701
55	0x3e2a2cc1	0.16618635
56	0x3e7cae77	0.24675928
57	0xbe796f8b	-0.24358957
58	0x3e7c811a	0.24658623
59	0xbdf35514	-0.11881462
60	0xbdfb31f4	-0.12265387
61	0x3ead2146	0.33814448
62	0x3e59b621	0.21260883
63	0xbe9c2196	-0.30494374

encoder.2.weight f4 [16, 64]
0	0xbcfc5766	-0.030803394
1	0xbd120a71	-0.03565449
2	0x3a5a4140	0.0008325763
3	0x3c9801d3	0.018555557
4	0x39edbffc	0.00045347202
5	0xbd1c8882	-0.03821612
6	0x3cc43439	0.023950683
7	0xb53b5b51	-6.979581e-07
8	0x3a4d1b34	0.0007824183
9	0xbb2fd203	-0.0026828058
10	0xb99386f4	-0.00028138573
11	0xb72bd806	-1.0242691e-05
12	0x3bf7e3ba	0.007564989
13	0x3cddaae5	0.027059028
14	0xbcca74e6	-0.024713945
15	0x3c1f5faa	0.009727398
16	0xb7ab502c	-2.0422121e-05
17	0xbb527e9a	-0.0032118917
18	0xbacf0ac6	-0.0015796057
19	0xb95c95d8	-0.00021036656
20	0xbc85fb65	-0.016355226
21	0x3b870553	0.0041205077
22	0x3c641ae1	0.013922424
23	0x389e6d4c	7.554385e-05
24	0xb814f966	-3.551822e-05
25	0xbd485982	-0.048913486
26	0x39f6a342	0.00047042413
27	0x3c15248b	0.009102951
28	0x3d14b336	0.03630372
29	0x3ca5b8c5	0.020229707
30	0xbcbe2d35	-0.023214916
31	0xbd61ca1c	-0.055124387
32	0xba0d244c	-0.0005384132
33	0x38c7e2b4	9.531286e-05
34	0x3a153a66	0.0005692601
35	0x3ba504ac	0.0050359573
36	0xbc28ef06	-0.010310894
37	0xba60e8a7	-0.000857959
38	0x3b896b4e	0.0041937
39	0xb9953418	-0.00028458307
40	0x3cb71169	0.022347169
41	0xbc1a9080	-0.009433866
42	0x36a8826f	5.0219746e-06
43	0xba23dfcc	-0.0006251305
44	0xba58fbdf	-0.0008277278
45	0xbae9afc6	-0.0017828874
46	0xbc5ed26f	-0.013599976
47	0xbd5ad6a7	-0.053427365
48	0xbd4e4d56	-0.050366722
49	0xbd4a732d	-0.049426246
50	0x3d40dca8	0.047085434
51	0x3761ff86	1.3470539e-05
52	0xb795162c	-1.7772509e-05
53	0x3a0c06c9	0.0005341587
54	0x3d0612c6	0.032732747
55	0xb92cb3a2	-0.00016470117
56	0x3cb73a43	0.022366649
57	0x3d09b404	0.033618942
58	0xbd346e1c	-0.04405032
59	0x3a41018c	0.0007362596
60	0x38949e1c	7.08664e-05
61	0x3b295df8	0.0025843363
62	0x3d5530bb	0.052048426
63	0xba9ccb75	-0.001196249
64	0x394847ad	0.00019100188
65	0x3d08e226	0.033418797
66	0xbb0974aa	-0.0020974078
67	0x38726d4c	5.7799087e-05
68	0x3c1fedcc	0.009761285
69	0xbc8f26fa	-0.01747464
70	0x3b306f85	0.002692194
71	0x3a521506	0.0008013997
72	0x38486773	4.778006e-05
73	0x3c6cc306	0.014450794
74	0xb997ed24	-0.00028977648
75	0xba3149c3	-0.00067630055
76	0x3d5f5d05	0.05453207
77	0x3b810fd5	0.003938655
78	0xb8b9a58f	-8.852325e-05
79	0xb97b8d81	-0.0002398994
80	0x3916de46	0.00014387918
81	0xbd5199a7	-0.051171925
82	0x39910e94	0.00027667417
83	0xb9e4d161	-0.00043643548
84	0xb7621e82	-1.3477753e-05
85	0x359e13f4	1.1777724e-06
86	0xbd12ac7a	-0.035809018
87	0xb8a36661	-7.791515e-05
88	0xbc1f124e	-0.009708954
89	0xb9b93e50	-0.00035332376
90	0x3d0bc813	0.034126353
91	0x3d0a2991	0.033731047
92	0x3ca3cd43	0.019995337
93	0xbcd677a8	-0.026180103
94	0xbb8c9d8a	-0.004291241
95	0xbc9c00f6	-0.019043427
96	0x3d23dfa4	0.040008202
97	0xb5b5a640	-1.3533936e-06
98	0xb7a5ad9c	-1.9750376e-05
99	0xb8e19ef4	-0.000107584434
100	0x38e6e123	0.000110091896
101	0xbcadf721	-0.021236004
102	0xbcbe79e7	-0.023251487
103	0x39b7ecdd	0.00035080957
104	0x39de1b87	0.0004236365
105	0x3cd4b6d9	0.025966095
106	0xbd0b7a50	-0.034052193
107	0x3d4c2978	0.049844235
108	0xbd481bfb	-0.04885481
109	0xbb2c82ed	-0.0026323155
110	0xbbe2d2b2	-0.0069220895
111	0x3d155af1	0.03646368
112	0x3c4e93b8	0.012608461
113	0x3c2778af	0.010221644
114	0x3c2e1969	0.010626175
115	0x39095206	0.00013095894
116	0xbcde7e5d	-0.027159864
117	0x3cbceb42	0.023061398
118	0xbce78901	-0.02826357
119	0xb81abfa0	-3.6894926e-05
120	0xbcd5f318	-0.026116893
121	0xba4515e6	-0.0007518217
122	0xbcdeaa01	-0.027180674
123	0xbd29d89c	-0.04146634
124	0x3881b42b	6.184758e-05
125	0xbd2e5ff2	-0.04257197
126	0xb8b15a72	-8.4568645e-05
127	0x37c9cc04	2.405607e-05
128	0xbc7bc1bb	-0.015366013
129	0x3d1a1d6a	0.037625708
130	0xbcd63f5a	-0.026153255
131	0xb903b810	-0.00012561702
132	0xbbdbddde	-0.0067097982
133	0xbc029de6	-0.007972216
134	0x37dcb6e6	2.6311212e-05
135	0xbceb9e7c	-0.028762095
136	0xba59971b	-0.00083004095
137	0x3b6bcad5	0.0035979052
138	0xbd29ea25	-0.041483063
139	0xbaa48101	-0.0012550653
140	0x3b73de20	0.0037211254
141	0xbc7afa2f	-0.0153184375
142	0xbcacae18	-0.021079108
143	0x3a4b1133	0.00077463983
144	0x3b81271d	0.0039414302
145	0x3ce68eb1	0.028144212
146	0xb99ac15a	-0.00029517227
147	0x39f6388b	0.00046962904
148	0xbc954f93	-0.01822642
149	0xbcdb3437	-0.026758296
150	0xb7cfa92c	-2.47551e-05
151	0xbd46effb	-0.048568707
152	0xbad42c42	-0.0016187506
153	0xba329548	-0.0006812406
154	0x3b3b6166	0.002859199
155	0x3a06191b	0.00051154353
156	0xb7dfacd4	-2.6664151e-05
157	0x392aab4d	0.00016276278
158	0xba539af7	-0.0008072103
159	0xb944f471	-0.00018783078
160	0x3d19c420	0.037540555
161	0x398e1436	0.0002709941
162	0x3887f436	6.4827895e-05
163	0x3c703898	0.0146619305
164	0xb9a4ce4d	-0.00031434224
165	0xb7925793	-1.7445336e-05
166	0x39a80f8e	0.00032055046
167	0xbca96e0d	-0.02068236
168	0x3d0b9228	0.034074932
169	0x3c39f3b2	0.011349605
170	0xbca53caa	-0.020170528
171	0xb99ef590	-0.00030319067
172	0xba5a6bca	-0.0008332102
173	0xba3761e0	-0.00069954805
174	0xbbb2424e	-0.005440033
175	0xbcb21961	-0.021740617
176	0xbd377743	-0.04479147
177	0x3c2977bd	0.010343489
178	0xbcc6f176	-0.02428506
179	0xbd4cd46b	-0.050007265
180	0x3ae206d6	0.0017244469
181	0x39b944df	0.00035337263
182	0xbbb9c75b	-0.005669517
183	0x3927e9f6	0.00016013518
184	0xbd32aa02	-0.043619163
185	0xba4a2755	-0.00077115494
186	0xbd1365c2	-0.035985716
187	0x39a4987d	0.0003139413
188	0xb70828b0	-8.115705e-06
189	0x3cdebb30	0.027188867
190	0xbc7b6613	-0.015344161
191	0x3a3d649e	0.0007224771
192	0x39b92e6c	0.00035320537
193	0x3ad9bed8	0.0016612662
194	0xbbabe310	-0.005245574
195	0xbcfaf941	-0.030636432
196	0xbca4c46e	-0.020113196
197	0x3b70fde6	0.003677243
198	0x3d4431ba	0.047898985
199	0x3e1d255f	0.15346287
200	0x3e1130a7	0.14178716
201	0x3995b189	0.0002855177
202	0xbda3e51d	-0.08002684
203	0xbd67a4d7	-0.056553688
204	0x3e059001	0.13043214
205	0x3dda8707	0.10670286
206	0xbd49e165	-0.04928722
207	0x3dd02476	0.10163204
208	0xb6d7d5cc	-6.4323885e-06
209	0x3d9aa547	0.075510554
210	0xbd4bae59	-0.049726818
211	0x3ca91064	0.020637698
212	0x3e282aa3	0.16422515
213	0x3db00224	0.08594158
214	0xbd22abe3	-0.039714705
215	0x3a51ada5	0.00079985923
216	0xbd2a7e65	-0.041624445
217	0x3dff6487	0.12470346
218	0x3ba85e2e	0.00513818
219	0xb97c1782	-0.0002404135
220	0x39a249c2	0.00030954002
221	0x3846bca8	4.738258e-05
222	0x3e402924	0.18765694
223	0xbd0ce0f5	-0.034394223
224	0x39b67b96	0.00034805824
225	0xbd48def6	-0.049040757
226	0xbcbbb183	-0.022911793
227	0xb99bcf2d	-0.00029718262
228	0x3dec1850	0.11528075
229	0xb98ed176	-0.0002724041
230	0xbccc72f2	-0.024957154
231	0x3d01fba5	0.031734128
232	0xb8af24bb	-8.351492e-05
233	0x3e3533d8	0.17695558
234	0x3dfbf7f1	0.123031504
235	0xba2e4a36	-0.00066486315
236	0xb942ce05	-0.0001857803
237	0x3e334678	0.1750735
238	0x3e10c772	0.14138582
239	0x3e0558a2	0.13022092
240	0x3d93e1a7	0.07220774
241	0x3dd9d95f	0.10637163
242	0x3d8c9b7b	0.06865593
243	0xba5a97a0	-0.0008338634
244	0x3c470db7	0.012149266
245	0xbcb511c0	-0.02210319
246	0x3da29ee8	0.07940465
247	0x3d999226	0.07498579
248	0x3c0e7b8b	0.008696447
249	0x3e209a6a	0.15683904
250	0x3e1c00ac	0.15234631
251	0xba415fb4	-0.00073766266
252	0x3e3b89d5	0.18314297
253	0x3e3a028d	0.18165036
254	0x3e3245d9	0.17409457
255	0x3de75164	0.11294821

encoder.2.bias f4 [16]
0	0xba3ac761	-0.00071250467
1	0xbb082499	-0.0020773767
2	0xbc853103	-0.016258722
3	0x3dc397fa	0.095504716
4	0x3dd1146f	0.102089755
5	0x3d1b133b	0.037860136
6	0x3946bc58	0.00018952915
7	0xb685b814	-3.9851384e-06
8	0x3981c4f3	0.00024751536
9	0x3cf1c0ce	0.029510882
10	0xbd121c71	-0.035671655
11	0x3e354ad0	0.1770432
12	0xb7fe7fa6	-3.03386e-05
13	0xbcde8871	-0.02716467
14	0x3d3299f7	0.043603864
15	0x388c8ba8	6.701733e-05

decoder.0.weight f4 [64, 16]
0	0x3d9507e7	0.07276898
1	0x3d392471	0.04520077
2	0xbe2867e7	-0.16445886
3	0xbd4a2eb4	-0.049360946
4	0xbdce99f5	-0.10087959
5	0xbe07b57d	-0.13252826
6	0xbca9e2c6	-0.020738017
7	0xbd82101a	-0.063507274
8	0xba2f2598	-0.0006681322
9	0x3da346ec	0.07972512
10	0xbe152df6	-0.14568314
11	0x3e033ed0	0.1281693
12	0x3e273686	0.16329393
13	0xbc827490	-0.015924722
14	0x3dd7799b	0.10521241
15	0x3d234e7c	0.03986977
16	0xbe0219ed	-0.12705202
17	0xbe14b1cf	-0.14520954
18	0xbe21a952	-0.15787247
19	0xbdc673bc	-0.09690043
20	0xbcafdc05	-0.021467218
21	0x3da26d5f	0.07931017
22	0xbe15e966	-0.14639816
23	0xbdc8f846	-0.098129794
24	0xbb171739	-0.0023054613
25	0x3d97a9ac	0.07405409
26	0x354ef19e	7.709258e-07
27	0x3cf785bb	0.030215135
28	0x3dc0bbe7	0.094108395
29	0xbd03ce61	-0.03217924
30	0xbcdbf46e	-0.026849952
31	0xbde63ad2	-0.11241688
32	0x3e04587c	0.12924379
33	0xbe2d28f9	-0.16910161
34	0x3cdef986	0.027218591
35	0x3dc816de	0.097699866
36	0xbdd24eb0	-0.10268915
37	0x3e22d8a9	0.15902962
38	0x3e1ea40b	0.15492265
39	0xba0401f0	-0.0005035689
40	0xbcf36ca3	-0.029714888
41	0x3aa1d18a	0.0012345773
42	0x3dd271bd	0.102756
43	0x3e30dc60	0.17271566
44	0xbbe42284	-0.0069621224
45	0x3dd6b755	0.104841866
46	0x3d831281	0.06400014
47	0x3c86d1cb	0.016457459
48	0xbdcb1aec	-0.09917244
49	0xbda1dcd0	-0.07903445
50	0xbde4dbf2	-0.11174764
51	0xbe2d171a	-0.16903344
52	0x3989ddc4	0.00026295905
53	0x3cad3a9b	0.02114611
54	0xbe172baf	-0.14762758
55	0x39487ca9	0.00019119926
56	0x3be2ffe1	0.006927476
57	0x3dfd5826	0.123703286
58	0xb8cc0403	-9.728225e-05
59	0x3e1e6315	0.15467484
60	0xbdc0c9eb	-0.09413513
61	0x3e3007ba	0.17190447
62	0x3d6f8f0b	0.058486026
63	0x394c7042	0.00019496775
64	0xbd8d0a7b	-0.068867646
65	0xbb6887c5	-0.0035481316
66	0x3bb9ec7d	0.0056739436
67	0xbdb25a4e	-0.087086305
68	0xbd7bbe78	-0.061460942
69	0xbd38e732	-0.04514236
70	0xbd9b2485	-0.07575325
71	0x3e1babca	0.15202251
72	0x3e20cb18	0.15702474
73	0x3d8023a3	0.06256797
74	0x3d143e0a	0.036191978
75	0x3da7764c	0.0817686
76	0x3dd1f802	0.10252382
77	0x399f843b	0.00030425363
78	0x3d4f51a2	0.05061496
79	0xbdb1d75c	-0.08683655
80	0xbba7ad2b	-0.005117079
81	0x385dedf1	5.2912106e-05
82	0x3cabba40	0.020962834
83	0xbe32d24f	-0.17463039
84	0x3d4db4c9	0.05022124
85	0xbd6eceec	-0.058302805
86	0xbd8de9ca	-0.06929357
87	0xbd7fc6a2	-0.06244529
88	0xbcf6816a	-0.030091006
89	0x3e222312	0.15833691
90	0xbdab72a9	-0.08371479
91	0xbdfbf4a0	-0.12302518
92	0x3daac47e	0.08338259
93	0xb91ff18e	-0.00015253408
94	0xbe01856e	-0.12648556
95	0xb8dbb252	-0.000104759485
96	0x3db6f018	0.08932513
97	0x3cc496c6	0.023997676
98	0x3dba8aeb	0.09108528
99	0x3e7bb30d	0.24580021
100	0x3bb13650	0.005408086
101	0x3b8d45e3	0.0043113097
102	0xbe0b6a0a	-0.1361467
103	0xbbc75bea	-0.006083955
104	0xbda8726a	-0.08224948
105	0xb4c9bd7c	-3.7577036e-07
106	0xbd2d904c	-0.04237394
107	0x3e1448db	0.14480917
108	0xbdf66a83	-0.12032034
109	0xbd0441ac	-0.032289192
110	0xbdd0c398	-0.101935565
111	0xbd80dc47	-0.062920146
112	0xbd8561fb	-0.06512829
113	0xbd956d48	-0.07296234
114	0xbd1ff7c7	-0.03905466
115	0x3dfb105b	0.12258979
116	0x3e936425	0.28787342
117	0xbdd8c18e	-0.105837926
118	0x3e0db268	0.13837588
119	0x3e243ec2	0.16039565
120	0xbdbf0afa	-0.093282655
121	0xbb8f23db	-0.004368288
122	0xbd57d006	-0.05268862
123	0x3dfa4609	0.122203894
124	0x3d261ea6	0.040556572
125	0xb9a4894f	-0.0003138282
126	0xbdbe3201	-0.09286881
127	0x3e2f5a7c	0.17124361
128	0x3d0ac36a	0.033877768
129	0xbd07ffa5	-0.033202786
130	0xbda0629f	-0.078313105
131	0x3d7d1bdf	0.061794158
132	0x3e854766	0.26031035
133	0x3d02ecb5	0.031964023
134	0x3d08a230	0.0333578
135	0x393e52df	0.00018150684
136	0xbc8e93f3	-0.017404532
137	0x3e2bda39	0.16782464
138	0xbe53e91f	-0.20694397
139	0x3e6d3d1b	0.23167841
140	0xbd610569	-0.0549368
141	0xb8414d6b	-4.6086887e-05
142	0xbe38e098	-0.18054426
143	0xbdf124bb	-0.11774584
144	0x3939e0b2	0.0001772668
145	0x3ba00a3f	0.004884034
146	0xb9b85773	-0.0003516037
147	0x3e63eb60	0.22257757
148	0x3e83829c	0.25685585
149	0x3ced21b7	0.02894674
150	0xbde218a7	-0.11039858
151	0x3b66e9cc	0.0035234569
152	0x3d9454bc	0.07242724
153	0xbe20972e	-0.1568267
154	0xbe614969	-0.2200066
155	0x3d154478	0.03644225
156	0x3ca3b354	0.019982971
157	0x3e0ea163	0.13928752
158	0xbc93750a	-0.018000145
159	0xbd95e7ae	-0.0731958
160	0xbdc3f8b5	-0.095689215
161	0x3dbd8b39	0.0925507
162	0xbdf89b07	-0.12138944
163	0xbdfe8d7b	-0.12429329
164	0xbd6870e5	-0.05674829
165	0xbca175db	-0.019709518
166	0x3cb90143	0.02258361
167	0xbd91b875	-0.071152605
168	0x397d4d92	0.00024156857
169	0x3dcb48fe	0.099260315
170	0x3d19929b	0.03749333
171	0xbcbce91b	-0.023060372
172	0x3e1e369f	0.15450524
173	0xbdb04461	-0.08606792
174	0xb9356eb8	-0.00017302751
175	0xbb042215	-0.0020161916
176	0xbe0ce3a5	-0.13758714
177	0xbe15a8b0	-0.1461513
178	0xbdb3f066	-0.08786087
179	0x3e0ff6eb	0.14059035
180	0xbe5f4299	-0.21802749
181	0x3daa43a4	0.08313683
182	0x38e3ce8c	0.00010862676
183	0x38b0c3d2	8.428808e-05
184	0x3e1dad09	0.15398039
185	0xbe2fb1ef	-0.1715772
186	0x3da0bcc3	0.078485034
187	0xbd30c36b	-0.043155115
188	0xbd3f1085	-0.046646614
189	0x3d441bda	0.047878124
190	0xbe250e34	-0.161187
191	0x3c0e1a6d	0.008673293
192	0xbd07f23c	-0.033189997
193	0xbb6e6dc4	-0.0036381343
194	0xbaa3d552	-0.0012499487
195	0xbe0edbc8	-0.13951027
196	0xbdb6ecd8	-0.08931893
197	0xb73896a6	-1.100233e-05
198	0xbe077460	-0.13227987
199	0xbd24e25d	-0.04025494
200	0xbdf79c23	-0.120903276
201	0x3cca3eae	0.024688091
202	0xbe2a6906	-0.16641626
203	0x3934d491	0.00017245325
204	0x3de48066	0.111573026
205	0xb8b740e8	-8.73821e-05
206	0x3e271804	0.16317755
207	0xbda282a5	-0.07935075
208	0xbcb92455	-0.022600332
209	0xbd290dd8	-0.041272968
210	0xbe2a1b1a	-0.16611901
211	0x3d914a9f	0.07094311
212	0x3d9b929d	0.07596324
213	0x3947d3d9	0.00019057038
214	0x3ae62f2e	0.0017561668
215	0x3a4da6f3	0.0007845007
216	0xb8feae72	-0.00012144157
217	0xbe0ff4d6	-0.14058241
218	0x3dda6ca5	0.106652535
219	0x3e3fb5d5	0.18721707
220	0xbcae232b	-0.021257004
221	0xb8161e2e	-3.5790894e-05
222	0xbc804656	-0.015658539
223	0xbe0af23f	-0.13568972
224	0xbe1f0b5f	-0.15531681
225	0x3db5b0ab	0.08871587
226	0xbe2f9fed	-0.1715085
227	0x3e221ec7	0.15832053
228	0xbe407f70	-0.18798614
229	0xbb36d114	-0.0027895616
230	0x3e0b2bca	0.13590923
231	0x3c84adcd	0.016196156
232	0xbdedda2d	-0.11613879
233	0xbd29cc97	-0.041454878
234	0x3e4f8102	0.20264056
235	0xbd950405	-0.07276157
236	0x3de9950e	0.11405383
237	0x3de6ef8b	0.11276158
238	0x3dbdb1da	0.09262438
239	0x3d8acbeb	0.067771755
240	0x3e0d347b	0.13789551
241	0xbe07ed81	-0.13274194
242	0xbe02c426	-0.12770137
243	0xbd8c3b64	-0.06847265
244	0x39b8fa08	0.00035281503
245	0xb86aa03e	-5.5939185e-05
246	0xb70d7b69	-8.432989e-06
247	0x3e2a17db	0.16610663
248	0xbc72b6d7	-0.0148141
249	0x3a1890ea	0.0005819934
250	0xbda11657	-0.07865589
251	0xbc2b6c34	-0.010462809
252	0x3e3271ee	0.17426273
253	0xbcce5ca8	-0.025190666
254	0x3e09ba42	0.13449958
255	0xbc070aab	-0.00824229

decoder.0.bias f4 [64]
0	0x3d5e857a	0.054326512
1	0x3d0d65a1	0.03452075
2	0x3d65373d	0.055960882
3	0xbdecdda0	-0.11565709
4	0xbd092c60	-0.033489585
5	0x3abdaa83	0.0014470372
6	0xbd2cea47	-0.04221561
7	0xbd746d17	-0.05967435
8	0x3dd29800	0.10282898
9	0xbda764dd	-0.08173535
10	0x38d95fbf	0.000103652004
11	0xbcd0ebd9	-0.025503086
12	0x3e021c83	0.12706189
13	0x3d3f0967	0.046639826
14	0xbe039bc9	-0.12852396
15	0x3cf8112f	0.030281631
16	0x3b2e6d5d	0.0026615479
17	0x3e686718	0.22695577
18	0x3e3cc80e	0.1843569
19	0x3c9f094f	0.019413618
20	0x3d9d21ea	0.07672484
21	0x3e68bc04	0.22727972
22	0xbd349e97	-0.044096556
23	0xbbcdf051	-0.0062847515
24	0xbd487f83	-0.04894973
25	0x3cc55f54	0.024093308
26	0x3a3f204a	0.0007290883
27	0x3b2ac810	0.0026059188
28	0xbe2adbfa	-0.16685477
29	0x3d17d4e1	0.03706825
30	0xbc6fc180	-0.014633536
31	0xbe386d0c	-0.18010348
32	0xb947022c	-0.00018978928
33	0xbe18d532	-0.14925078
34	0x3bd69423	0.006548421
35	0x3df22bfc	0.118247956
36	0xbe2eb85e	-0.17062518
37	0x3d714e0c	0.058912322
38	0xbe0e2619	-0.1388172
39	0x3e6da17a	0.2320613
40	0x3d99b1ab	0.075045906
41	0xbc26f727	-0.010190762
42	0x3e1ea6a3	0.15493254
43	0x3e1fa45b	0.1559004
44	0xbda9ea5f	-0.08296656
45	0x3e5629e5	0.20914419
46	0xbddf60e8	-0.10907155
47	0xbe01e30f	-0.12684272
48	0x3dc04d91	0.093897946
49	0x3e91b23d	0.28456298
50	0x3e19da4c	0.1502468
51	0xbdf55716	-0.11979501
52	0xbe281402	-0.16413882
53	0xbe3d93d6	-0.18513426
54	0xbd5d0d32	-0.053967662
55	0x3dde2451	0.108467706
56	0x3e7cfb00	0.24705124
57	0x3828d673	4.0254043e-05
58	0xbc532ea9	-0.012889543
59	0x3ddd290f	0.10798847
60	0xbd2c82b2	-0.04211683
61	0xbdabe4ac	-0.08393225
62	0x3d358c65	0.044323344
63	0xbdfb5caf	-0.12273537

decoder.2.weight f4 [6, 64]
0	0xbda3dbae	-0.08000885
1	0xba67f28c	-0.0008848093
2	0xbe0ccf32	-0.13750914
3	0x39924f8a	0.0002790655
4	0xbd2686b0	-0.04065579
5	0xbcba66c5	-0.022754082
6	0x3dde66bd	0.108594395
7	0x3c577a85	0.0131517695
8	0x3dd25a3a	0.102711156
9	0xbd6db5df	-0.058034774
10	0xb75e285c	-1.3241628e-05
11	0xbddf4b11	-0.1090299
12	0x3cd45fff	0.02592468
13	0x3d8b56ca	0.06803663
14	0xbdf64a6e	-0.12025915
15	0x3afe029e	0.0019379442
16	0x37b3915c	2.1406151e-05
17	0x3c9a523a	0.018838037
18	0xbd8349a2	-0.06410529
19	0x3d3a2d56	0.045453392
20	0xbdb37259	-0.087620445
21	0x3d49621f	0.04916584
22	0xbd637d57	-0.055539455
23	0xbc82aaa1	-0.015950503
24	0x3d3982ff	0.045290943
25	0x3c4e622b	0.012596647
26	0x3d2cc814	0.042182997
27	0x385fef6a	5.3390315e-05
28	0xbd0f073d	-0.034919012
29	0x3ddfedf0	0.10934055
30	0xbcfa7895	-0.030575076
31	0x3bdfef34	0.006833935
32	0x3c2372a7	0.009976066
33	0x3d0813bd	0.03322195
34	0xbd0b2678	-0.033972234
35	0xbe08cde5	-0.13359793
36	0x3da38cae	0.07985817
37	0xbcb38668	-0.021914676
38	0xbd1d009c	-0.03833066
39	0x3d899c4d	0.06719265
40	0xbd6dded6	-0.05807384
41	0x3c888a30	0.016667455
42	0xbda522c1	-0.080632694
43	0x3de34f71	0.110991366
44	0xbce40b54	-0.027837433
45	0xbc980418	-0.01855664
46	0xba2c9ea8	-0.0006584921
47	0x39f00168	0.00045777415
48	0xbcd23d69	-0.025664048
49	0x3cf22645	0.029559264
50	0xbd327664	-0.043569937
51	0xbd50ab35	-0.050944526
52	0x3dc739e1	0.097278364
53	0xbd34e687	-0.04416516
54	0xb90079db	-0.00012252426
55	0xbc7a4449	-0.0152750695
56	0x3cf79056	0.030220192
57	0x3a22cb57	0.00062101096
58	0x3b8b40a6	0.00424965
59	0xbdd5c1a5	-0.104373254
60	0xbcd75caa	-0.026289303
61	0xbd0d00a0	-0.034424424
62	0x3b6c731a	0.0036079348
63	0x3dac9439	0.08426709
64	0xbcd44110	-0.02590993
65	0xb9619c38	-0.00021515868
66	0xbd0d48c3	-0.03449322
67	0x39b88c0e	0.00035199564
68	0x399b12f9	0.0002957804
69	0x38cfa3a7	9.901012e-05
70	0x3df36214	0.11883941
71	0xbdb475b7	-0.08811515
72	0x3d354e69	0.04426423
73	0x3dade124	0.08490208
74	0xbbce826b	-0.006302168
75	0xbc0a1451	-0.008427695
76	0xb756ee89	-1.2810932e-05
77	0x3d80dac5	0.06291727
78	0xbdcf2de6	-0.10116176
79	0xbcccd25f	-0.025002657
80	0x384efc12	4.9348986e-05
81	0xbd3fbb07	-0.046809223
82	0x3cf24693	0.029574668
83	0xbcb8a01d	-0.022537285
84	0x3d112a57	0.03544077
85	0x3df40adf	0.11916136
86	0xbc83cb72	-0.016088221
87	0x3d76472f	0.06012648
88	0xbde9b39a	-0.114112094
89	0xb9b827da	-0.00035124907
90	0xb6cb6904	-6.062097e-06
91	0xbaffd427	-0.0019518182
92	0xbbb6e077	-0.0055809575
93	0x3d40318e	0.04692226
94	0x3d97192e	0.073778495
95	0x3dd12de6	0.102138326
96	0xbd329c3d	-0.04360603
97	0x3c0e0280	0.008667588
98	0xbcbb3088	-0.02285029
99	0xbd829753	-0.06376519
100	0x3db54f58	0.08853024
101	0x3cbd94d5	0.023142258
102	0x36965b44	4.480973e-06
103	0xbd173f63	-0.036925685
104	0xbd993809	-0.07481391
105	0x3cd6120b	0.02613165
106	0x3d7da20d	0.06192212
107	0x3d875799	0.06608505
108	0x3db6eb15	0.08931557
109	0x3de79151	0.11307014
110	0xbc80772f	-0.015681831
111	0x3d0e28af	0.034706768
112	0xbc506e0b	-0.012721549
113	0x3d3b8c00	0.04578781
114	0xbcd22752	-0.025653515
115	0xb9a76302	-0.0003192649
116	0xbd8bac14	-0.06819931
117	0x3ac15932	0.0014751314
118	0xbbc2376a	-0.005927016
119	0xbdbb1785	-0.09135345
120	0x3aa48d76	0.0012554366
121	0xb94813af	-0.00019080819
122	0xbd0e214d	-0.034699727
123	0x3de56d84	0.11202529
124	0xbcc1b7a5	-0.023647139
125	0x3d1a61e9	0.03769103
126	0xbcde1dd8	-0.02711384
127	0x3db321be	0.0874667
128	0x3dd1dc75	0.10247127
129	0x3b022f66	0.0019864677
130	0x3df30420	0.11866021
131	0x3c0d8b65	0.008639191
132	0x37e33b3c	2.7088092e-05
133	0x38d62a40	0.00010212185
134	0x3bcc63b3	0.006237471
135	0xbda6cf8b	-0.081450544
136	0x3db698d2	0.08915867
137	0x3da09273	0.07840433
138	0x3ce0ea14	0.027455367
139	0x3d65324a	0.055956163
140	0xbcf53a06	-0.029934894
141	0xbd4de964	-0.050271407
142	0x3c985bd7	0.01859848
143	0xb947f453	-0.00019069137
144	0xbd1eeefe	-0.03880214
145	0x3dba2ff6	0.09091179
146	0x3d6283aa	0.055301346
147	0xbd770651	-0.06030876
148	0x3d309b6b	0.043116968
149	0x3d1f4caa	0.038891472
150	0xbc983982	-0.01858211
151	0xbb616a98	-0.003439581
152	0xbcc0ac89	-0.023519771
153	0xb8d831f4	-0.00010308987
154	0xbcfe1f18	-0.031020686
155	0x38891e86	6.5383545e-05
156	0xba2544c7	-0.0006304499
157	0xbb1c4a02	-0.0023847823
158	0xbd1c87eb	-0.03821556
159	0x3dbae6b8	0.09126037
160	0x3c9fb3a5	0.01949484
161	0xb8d3185b	-0.000100658006
162	0x3d413311	0.04716784
163	0x3d64f3a2	0.05589641
164	0xbd26e63d	-0.040746916
165	0xbda4ab55	-0.080404915
166	0xb97f96f3	-0.00024374928
167	0xbda8f558	-0.082499206
168	0xbd18498c	-0.037179515
169	0x3ca5b6cf	0.020228771
170	0xbdb7f486	-0.08982186
171	0x3d994016	0.074829265
172	0x3c5c4fb8	0.013446741
173	0xbd162974	-0.036660627
174	0x3cdc7620	0.026911795
175	0xbc26eb97	-0.010188005
176	0xbd81e8ac	-0.06343207
177	0x3df471fc	0.11935803
178	0xbd6bf2d7	-0.057604637
179	0xb965b536	-0.00021906648
180	0xbdf0ea50	-0.117634416
181	0x3d274afc	0.040842995
182	0xbcd7e15c	-0.026352577
183	0xbd5c2a86	-0.05375149
184	0x3d0cb590	0.03435284
185	0xbce8d1c2	-0.028420333
186	0xbccf867d	-0.025332684
187	0xbd6897e7	-0.05678549
188	0xbd309e2f	-0.043119606
189	0x3dbfa7fe	0.09358214
190	0x3d51df98	0.051238626
191	0xbdc4915e	-0.09598039
192	0xbb85755c	-0.004072828
193	0x3c550857	0.013002477
194	0xbd2f4135	-0.042786796
195	0xb9b92519	-0.0003531359
196	0xbd0219af	-0.031762775
197	0x3a570bc1	0.00082033506
198	0xbc3c5cb3	-0.011496711
199	0xbbcf0f10	-0.0063189343
200	0x3d018aea	0.03162662
201	0xbc9f9183	-0.019478565
202	0x3a5a0375	0.0008316555
203	0x3d5c70b0	0.053818405
204	0x391985dd	0.00014641085
205	0xbcfa9b99	-0.030591773
206	0x3dbb400e	0.09143077
207	0x39cec129	0.00039435297
208	0xbd46e304	-0.048556343
209	0x3d495914	0.049157217
210	0x3d8140d0	0.0631119
211	0xbd12bc52	-0.035824127
212	0xbd8af315	-0.067846455
213	0xbda2d358	-0.07950467
214	0x3c543e6a	0.012954334
215	0x3cf13111	0.029442342
216	0xbd9bb328	-0.07602531
217	0xb96cbfe4	-0.00022578199
218	0x3a26a934	0.00063576107
219	0x398985ef	0.00026230465
220	0xb6650b00	-3.4130062e-06
221	0x3c9bbce1	0.019010963
222	0xbd684537	-0.056706633
223	0xbdddfc10	-0.10839093
224	0x3bb61ad0	0.0055573955
225	0x3c6b9401	0.014378549
226	0x3d6e8358	0.058230728
227	0x3d39eca1	0.045391683
228	0xbd94f92f	-0.072740905
229	0x3d8fc039	0.070190854
230	0x3c3d4a36	0.011553338
231	0x3d98bf5b	0.07458373
232	0x3dd833e6	0.10556774
233	0x3cb820da	0.022476602
234	0x3ddcb15f	0.10776018
235	0x3d18524c	0.03718786
236	0xbdc4d861	-0.096115835
237	0xbd840e86	-0.064480826
238	0x3a4323b3	0.0007443979
239	0x3d3b12b2	0.045672126
240	0x3ccc8660	0.024966419
241	0x3d8bec02	0.06832124
242	0xbd8cf86f	-0.068833224
243	0xbc6f8f53	-0.0146215735
244	0xbde2161b	-0.110393725
245	0x397beab3	0.00024024658
246	0x39b53ded	0.0003456915
247	0x38a61336	7.919075e-05
248	0xbdc94323	-0.098272584
249	0xbd1a06b0	-0.037604034
250	0xbda837e1	-0.08213783
251	0x3dd84867	0.10560685
252	0xbcd905bd	-0.026491994
253	0xbc709189	-0.014683136
254	0xbd50f7d2	-0.05101759
255	0xbdd60dcd	-0.10451851

decoder.2.bias f4 [6]
0	0x3ddbcdc4	0.10732606
1	0x3d5f76ff	0.054556843
2	0xbd3a24d1	-0.045445267
3	0xbd30dbc5	-0.04317834
4	0x3e08d41a	0.1336216
5	0xbd2dbaa7	-0.042414334
